1b/BOW_sgd_no_dropout.model (torch_old, 626505 bytes, 7 tensors)

weight f4 [500, 300]
00000000: 300c 32bd d120 403c fa8f 89bd c34c 513b
00000010: 22ac 313d 8f31 2d3a 7005 5cbc 4914 20bd
00000020: 61ff a53c 880e 0fbc af4d fabc 2a38 b13c
00000030: 98c1 44bd 3311 383d 1e9b 6ebc 220e 0a3d
00000040: 9dfc 65bc d8c7 343c d7b3 31bd fe5c b13c
00000050: ae0b 2fbd ee31 85bb fcf3 96bc 3954 573b
00000060: 2f52 10bd ecc9 5a3c de56 803c 0c73 193d
00000070: d4b6 56bd d633 50bd 3a21 983d 7d9e 853b
00000080: cbf8 36bc efdc ac3b 1035 4fbd ed3f 2abd
00000090: 82e5 a5bc 3470 563d 282b 233d 67ca 14bd
000000a0: e62e 323d 6ddd ac3c b2db 453d e0ef 58bd
000000b0: f786 06bd 0bbe b5bc 8c78 a83b c7aa 863d
000000c0: 049b 0bbd bf9d 1abc c846 bcba 2fde 613d
000000d0: f809 d6bc 2553 3fbd 0f51 f13a 0fdc debc
000000e0: beb7 c33c 8ff2 13bd 8226 70bd be4b b1bc
000000f0: 8347 8d3c bbd7 cbbc 35c6 74bd 8634 e5bc
00000100: 3162 e9ba 321d f33b c259 c83c 149e 3bbd
00000110: 4b07 d83c b76b 22bd e23e aebd da1a 273d
00000120: 694f 38bd 7a76 a03d b105 2a3c 2117 803d
00000130: 55a2 373d e1fc 04bc 7c00 4a3b 1d47 38bd
00000140: ada2 efbc 8f72 1ebb 4891 213c d5d5 3c3d
00000150: 970d e13c 9c16 a4bc 6e37 793c 7fa4 78bd
00000160: 866a ef3b 5454 06bc 172c ecbc 04b4 d93b
00000170: f429 edbb 4af0 65bc 9c84 bebb 9520 d63c
00000180: 9588 0abc 3195 05bb 7d93 29bc 40c3 4d3d
00000190: d59c c7bc 4ec0 2e3d f6be eb3b 1f33 62bd
000001a0: ef9e 383c f6b5 47bc eaad 8b3d 8c87 f23c
000001b0: 8a73 d3bb 614e 79bd 9cc4 28bc 42ec 38bc
000001c0: 0d31 2bb9 c7f9 55bd cab3 1ebd 6f2c 29bd
000001d0: dab5 1f3d 4f69 073d 3a91 85bd 0b5b 763a
000001e0: 5565 b1bc af80 98ba 27d3 873d 993f a03b
000001f0: a1f5 28bd 6dbd 3cbc 8976 e8bc 2868 873d
00000200: 9196 a6ba b0e1 443c 153b 1b3d 433b 793c
00000210: 6fc7 8dbd d558 643a 3ed9 313b 5c38 c639
00000220: f964 b93c fdb2 fabc e0ec 0cbd b3e1 493d
00000230: 90a9 6cbb fc36 2c3d 2a1c f23b 5746 323d
00000240: 0022 ddbb c9cb e3b9 46af 2dbd 6ed7 833d
00000250: 3000 903c 0889 21bd 2fe0 5a3c 37ec 63bd
00000260: 2a4b 22bd 55a6 39bb 034b bfbc 7901 3d3c
00000270: c5a5 e53c 0c05 ad3b ab0a c5bc 692d 653d
00000280: b45f 66bd 843c 58bd 71ce 4e3d 4b34 b63c
00000290: eb6c e5bc 7ffe 6dbd 0a5c 03bd c375 87bd
000002a0: 7dbf 733c 2285 7f3d 4f81 6c3d df66 4d3d
000002b0: eb47 653d 0cf7 7ebc 4f10 8ebc aa8b 71bc
000002c0: 93df 4abd 2598 00ba b8af 4abd bf65 d2bc
000002d0: 71cc 853c 2b71 193c 5fd9 7cbd 5776 afbc
000002e0: eb83 0dbc 11f3 b6b9 d547 803d 656d 563d
000002f0: 026d 59bd 3f34 27bc 9741 c23b 35cf bfbc
00000300: 7d9f 12bd c9b2 183d e294 54bd 6a50 58bd
00000310: 0091 d43b 933b 2a3c 84ed 0e3c 858d 903d
00000320: 3217 973b ec91 323d 2ce7 8f3c ce00 fa3c
00000330: 4369 5ebd 4b9d 00bc 9025 b23c 8172 d33c
00000340: 768f 2fbb 978f 05bc faa4 573c 70d4 f93c
00000350: 2172 083d 7a8e 23bd c630 5abd 62a3 cb3c
00000360: afe2 153c 3245 04bd 406b 613d 73cf d23c
00000370: 4b1e 1fbd 968f 0f3d 86d5 1a3d 5f70 303d
00000380: 4ddd d9bc b7d0 bb3c d957 58bd e8a5 263d
00000390: ce66 593c b2a8 fabc f4ca 41bd 145d 9c3d
000003a0: 84d7 383d 0500 3dbd 8703 dabc 0457 a8bc
000003b0: 0691 36bd 460b 013d 3a1a af3c 0d91 30bd
000003c0: 7675 a4bd df3b 9cbc 4c1a fabc 7ebc 36bd
000003d0: 3d1e bfbc 9965 03bd d2d0 b0bc c380 2b3d
000003e0: 1ee0 64bd 1b48 ec3c 7499 bd3c 1668 ffbc
000003f0: 99db 60bd f255 4cbd f749 503d 652a 213d
-0.043468654 0.011726574 -0.067169145 0.0031936623 0.04337705 0.0006606811 -0.013429031 -0.039081845
0.020263376 -0.008731492 -0.03055462 0.021633226 -0.048036188 0.044938277 -0.01456335 0.033704884
-0.0140372785 0.011033975 -0.0433844 0.021650787 -0.042735748 -0.00406479 -0.018426888 0.0032856597
-0.035234626 0.013353806 0.015666422 0.037463233 -0.052420452 -0.050830685 0.074282125 0.004077731
-0.011167715 0.005275361 -0.050587714 -0.04156487 -0.02025104 0.0523531 0.03983608 -0.03632584
0.043501757 0.021101678 0.04830522 -0.052963138 -0.032843556 -0.022185346 0.0051413234 0.06575542
-0.03408338 -0.009437024 -0.0014364356 0.05514353 -0.0261278 -0.046710152 0.0018410998 -0.027204541
0.023891326 -0.036119994 -0.058630474 -0.021642562 0.017246014 -0.024883142 -0.059759337 -0.027979147
-0.0017805753 0.007419252 0.024456862 -0.045805052 0.026370665 -0.039653506 -0.08508088 0.040797092
-0.044997606 0.078350976 0.0103773335 0.062544115 0.044832546 -0.008116932 0.0030823043 -0.044989694
-0.029252375 -0.002417717 0.009861298 0.046102364 0.0274723 -0.020030312 0.015210969 -0.06070375
0.0073063998 -0.008198816 -0.028829617 0.006643774 -0.007237667 -0.01403434 -0.005814148 0.026138583
-0.008455415 -0.0020383114 -0.010350105 0.050235033 -0.024366776 0.042663865 0.007194395 -0.055224534
0.0112683615 -0.012189379 0.06820281 0.02960565 -0.0064529823 -0.060865764 -0.010300782 -0.011286797
-0.00016326104 -0.05224016 -0.03874568 -0.04130214 0.038991787 0.033059414 -0.065218404 0.0009397722
-0.021654764 -0.001163503 0.06632071 0.004890394 -0.041249875 -0.011519772 -0.028376834 0.06611663
-0.0012709667 0.012016699 0.037898142 0.015211883 -0.069228046 0.0008710747 0.0027137543 0.00037807494
0.022631155 -0.030602926 -0.03440559 0.04928751 -0.003611181 0.042044625 0.0073886113 0.043524113
-0.006748438 -0.00043448646 -0.042403482 0.06437574 0.017578214 -0.039437324 0.013359114 -0.055645194
-0.039622463 -0.0028327901 -0.023351198 0.011535996 0.028033147 0.0052801427 -0.024052938 0.05595151
-0.056243613 -0.052792087 0.050489847 0.022241732 -0.028006038 -0.058104035 -0.032070197 -0.06614258
0.014877197 0.062382825 0.057740506 0.050146934 0.05597679 -0.01556183 -0.01734176 -0.014742771
-0.049529623 -0.0004905484 -0.049483985 -0.025683282 0.016332837 0.00936536 -0.06173074 -0.021418734
-0.008637409 -0.00034894844 0.06263701 0.05235042 -0.053082474 -0.0102053275 0.005928229 -0.023414234
-0.03579663 0.037279878 -0.0518998 -0.052811064 0.006487012 0.01039018 0.00872362 0.07058243
0.0046109194 0.043596193 0.017566286 0.030517962 -0.054299604 -0.007850002 0.021746427 0.025811436
-0.002678839 -0.00815191 0.013161892 0.030496806 0.033311967 -0.039930798 -0.05326917 0.02485818
0.009148284 -0.032292552 0.055033922 0.025733685 -0.03884725 0.035049044 0.037801288 0.043075915
-0.026594782 0.022926671 -0.052818153 0.040685564 0.013269139 -0.030598018 -0.04731269 0.07634941
0.045127407 -0.046142597 -0.02661301 -0.020549305 -0.0445719 0.03150489 0.02137481 -0.04310708
-0.080302164 -0.019071518 -0.030530117 -0.044613354 -0.023329848 -0.032079313 -0.021583948 0.041870844
-0.055877797 0.028842976 0.023144461 -0.031177562 -0.054896925 -0.04988665 0.05085179 0.03934707

bias f4 [500]
00000000: e16b 853c 0d3b 69bc b978 45bd c810 773c
00000010: 741b b53c 0f5e 9f3c c855 643d ce23 303d
00000020: 3cfc 47bd f4ba 2fbd a1fa f63c 12be ce3b
00000030: 9e0c 94bc a475 623d bd7c 09bd 627e 3b3d
00000040: 8d8e 3cbd af26 19bc e853 bfbb b4da 883c
00000050: 3faa 16bd a964 70bc 8c36 9cbc 3d61 ec3b
00000060: dcb9 113d 8ac2 443c bdee 0c3c cdca 823c
00000070: 0ad2 183c 7623 5d3d bcae 4d3d d3ab 10bc
00000080: aee6 443d 1897 2ebd 78cd 98bc 4680 0b3c
00000090: eafd 903b cb48 2cbd 847f b6bc 65de 20bd
000000a0: 0409 953c 76d4 71bc 027c 073d 09d1 ddbc
000000b0: cf73 0e3d 7a72 2b3d c640 9d3c 0680 89bc
000000c0: c82f 0cbc 235c 953c ed06 873b 8695 12bd
000000d0: e469 45bd c6d1 143d 87da 82bb c0ad 433d
000000e0: 073a 30bd e8ee c73c 0331 d3bc 6812 17bd
000000f0: 7c02 0cbd f0b6 4c3d 084f 1a3d 3132 95bc
00000100: a994 053d 4f67 613d d690 0cbd e30a da3c
00000110: ec77 de3c d0fb 3e3d dd72 63bd 38b1 1d3c
00000120: e7ca 693c 784f 0cbd 741e 07bd 444c 913c
00000130: d359 893b c442 523c 3f71 20bd 9e3a 1bbd
00000140: 609b 2ebd d7ec 5f3d bedc 963c 06e6 9fbc
00000150: fd27 453d 6b80 143d 5fd6 13bd 46c2 123d
00000160: 00b1 06bd 60b5 7d3c e609 63bd ee7b 56bd
00000170: 60e3 a03c feab 68bd 40fd 3b3c 2433 9ebc
00000180: 1d88 4ebd 6904 37bd 138d 38bd 3c01 0cbd
00000190: b828 163d 143a cdbc fdf0 66bd fdd2 573d
000001a0: 08db 57bd 7ccd 13bd 20bb 11bd 0f90 043d
000001b0: f894 48bd ae7c 48bd 929d 4e3d 4df2 74bc
000001c0: ba61 c23c 9ad5 c03c 70ea 2bbd 2289 aebc
000001d0: feb2 4a3c 1f78 333d d440 ec3c a60d 31bd
000001e0: 6d7c a73c c45e 06bd b2eb fcbc c15a 2e3b
000001f0: 0221 283d 9eab 283d 5490 23bd 8c28 223d
00000200: 3a0a 673c 34ce aebc 714b 1cbd 3c73 b13c
00000210: c225 0ebd b3a9 ca3c 7557 5f3d f461 1a3d
00000220: 602b dbba cd40 4e3d a270 113d 3db9 0e3c
00000230: 0cd5 5a3d f4c8 0cbc e45e 28bc b87b edbc
00000240: 9ac6 b73c 70a4 5abb 3015 db3c cafc ecbb
00000250: 127b 2b3c c8b9 db3c 2640 c33c 10eb 673d
00000260: a66a 08bd 1ecc 003d 9c89 883c 0a75 093d
00000270: 8b9a cbbc c26b 38bd 6b7a 50bd 73bc 58bd
00000280: 99ea eabc 92fa b63c a0be 123d 9e3e d7bc
00000290: 1808 383d d616 5fbc 6b3a 5e3c b6f8 09bd
000002a0: 34a2 4b3d 0382 a33b 6273 433d da8e c13c
000002b0: 615b 43bd 4da7 adba 06c6 0bbd 5fa0 55bc
000002c0: 4086 44bc b560 23bd d59f 293d fe17 a6ba
000002d0: beaf d7bc 2c6f 3b3d 41a1 e23c c0e7 913c
000002e0: 84c6 23bd 7881 3b3d c4a7 52bd 633c c6bc
000002f0: b55d 233d 3af8 cb3b 7faf 223d df2c d53a
00000300: be3c 2d3d d71c 4d3b 9cc6 8c3c 9aea 12bd
00000310: acd9 62bc ba2b 683d 56b5 aabc 3e1d 0fbb
00000320: 3180 25bd 6099 ee3b 5557 f1bc 19b5 173d
00000330: 4a06 10bd 2d94 1d3d 2371 d13c bc6d 38bc
00000340: 8f6e 65bd 474b 133c 474e 52bc ba64 dfbb
00000350: d7d0 cf3c b87c 023d 9a68 2c3d ddb5 3b3c
00000360: e4be fd3c fe9f 48bd 4518 4e3d 1598 f3bc
00000370: 4f3e 413a 3aa4 1cbd bacb 6c3c f8b9 353c
00000380: aae2 1abd 2fbd efbc 9c23 e8bc c75f 123d
00000390: 4ac9 e2bc 06f4 363d e448 983c 95b1 e93b
000003a0: ef6e 20bc dfd8 3dbd d0dd 663d 9ca3 2fbd
000003b0: 7d48 b03c 077b b1bc 0114 59bd 0d26 c9bc
000003c0: b6bb 91bc 3bec 51bd 3484 5abd 1c53 613d
000003d0: a015 a4bc 6048 42bd 87c6 d4bc ee7e 97ba
000003e0: 780d 563d 5959 073d fad8 043d f31e 2dbd
000003f0: c023 6d3c fca9 833c c5af 893b 1d96 55bd
0.016286792 -0.01423527 -0.048210833 0.015079685 0.022107817 0.01945403 0.05574587 0.043002896
-0.048824534 -0.0429029 0.030148806 0.0063092792 -0.018072423 0.055287972 -0.033566225 0.045774825
-0.046034385 -0.009347602 -0.00583886 0.016705848 -0.036783453 -0.014672437 -0.019068979 0.00721374
0.03557764 0.012009272 0.0086018415 0.015965844 0.009327421 0.053988896 0.050215468 -0.008830029
0.048071556 -0.042624563 -0.018652663 0.0085144695 0.0044248 -0.04206161 -0.022277601 -0.039274592
0.018192776 -0.014760127 0.033077247 -0.027077215 0.034778412 0.04185722 0.019195925 -0.01678468
-0.008556314 0.01823241 0.0041206987 -0.035787128 -0.04819669 0.036332868 -0.0039933356 0.047773123
-0.04302409 0.024405912 -0.025780207 -0.036882788 -0.034182057 0.04997915 0.037673026 -0.01821241
0.032612476 0.055030163 -0.034317814 0.02661652 0.027156793 0.046626866 -0.055529464 0.009624772
0.014269567 -0.034255475 -0.032988027 0.017736562 0.004191616 0.012833301 -0.0391705 -0.0378977
-0.042628646 0.054669227 0.018415805 -0.019518863 0.04813384 0.03625528 -0.036093112 0.035829805
-0.032883644 0.015485138 -0.05542936 -0.052364282 0.01963967 -0.05680465 0.011473954 -0.019311495
-0.050422776 -0.04468194 -0.045056414 -0.034180865 0.036659926 -0.025052108 -0.056382168 0.05269145
-0.05269912 -0.036084637 -0.035578847 0.032363947 -0.048970193 -0.04894703 0.05044324 -0.014950347
0.02372824 0.023539353 -0.041971624 -0.021305624 0.012371777 0.04381573 0.028839506 -0.043225907
0.020445073 -0.03280522 -0.030874107 0.0026604387 0.041047104 0.041179292 -0.039932564 0.03958945
0.014101559 -0.02133856 -0.038157884 0.021661393 -0.034703977 0.024739122 0.054526765 0.03769107
-0.0016721301 0.050354768 0.035507806 0.008711156 0.053425834 -0.008592833 -0.01027653 -0.028989658
0.022433568 -0.0033362173 0.026743501 -0.0072322832 0.010466354 0.026821986 0.0238343 0.056620657
-0.033304833 0.03144466 0.01666718 0.033558883 -0.024853965 -0.04502464 -0.050897997 -0.052914094
-0.028676318 0.022336278 0.035826325 -0.026274975 0.044929594 -0.013616284 0.013563733 -0.033684455
0.049715236 0.004989864 0.04771746 0.023627687 -0.047694568 -0.0013248712 -0.034124397 -0.013038724
-0.011994898 -0.03988715 0.041412193 -0.0012671945 -0.026328918 0.04576032 0.027664782 0.017810702
-0.03998424 0.045777768 -0.051429525 -0.024198717 0.039884288 0.0062246593 0.039718147 0.0016263983
0.042294256 0.0031297707 0.017184548 -0.035868265 -0.013845842 0.056682326 -0.02083842 -0.0021837498
-0.040405456 0.0072814673 -0.029460588 0.037037943 -0.035162248 0.03847139 0.025566643 -0.011256631
-0.05601364 0.0089901155 -0.012836046 -0.0068174275 0.025368137 0.031857222 0.042091943 0.011456934
0.030974813 -0.048980705 0.050316114 -0.029735604 0.00073716504 -0.038242556 0.014452869 0.011091702
-0.03781382 -0.029265014 -0.028337292 0.03573587 -0.027683873 0.044666313 0.018589444 0.007131765
-0.009792074 -0.046349403 0.05636388 -0.04288064 0.02151894 -0.02166511 -0.052997593 -0.024554277
-0.017789703 -0.051250678 -0.053348735 0.0550109 -0.020029843 -0.047432303 -0.025973571 -0.0011558214
0.05225894 0.033044193 0.032433487 -0.042265844 0.0144738555 0.016072266 0.0042018616 -0.052145112

weight f4 [500]
00000000: 157b 433f 0de8 583f 89ff 8c3f 2ce8 4c3e
00000010: 4a27 3f3d 569c 823e 2844 d13d a140 433d
00000020: a9cb 523f 0e23 8a3e df4b 733f 46a1 673e
00000030: 1256 873f 2cbd 763f b6df 2e3f 1556 483e
00000040: 3436 383e 82ab 753f 6631 8e3e 94b7 063e
00000050: 5d10 8d3f aa96 353f b7fc 653e ec22 1f3f
00000060: 6b07 9e3e 3dd1 893f ff3e 763f 1caf 803f
00000070: 3ae4 693e 8062 163f fde5 9f3d 2d44 433f
00000080: b248 553f a4dd 943f 1f24 413f 55fe 683f
00000090: b96f 4b3f 9962 2a3f d0f9 563d a8ea 2d3f
000000a0: 4aa0 833e fac6 903f d7f6 093f bea3 773f
000000b0: f453 723f a193 433f 0e2f 5a3f d819 383d
000000c0: 1699 e43c f398 883f b67f 8a3f 0f72 c63d
000000d0: 6532 7f3f dc69 383f 9df1 d13e 1303 943e
000000e0: bae5 c23c f096 223e a32d 8c3f 2fda 863f
000000f0: 96e8 163f f14f ad3e e1f7 e83d 3637 863f
00000100: 81cf 7a3f b158 c23e 944b 5f3f eaee 7d3f
00000110: 3198 bd3b 3ab6 083e 4150 5a3f 644e 473e
00000120: 7b2e 9f3e 5117 5e3f e229 853e 6ee4 453e
00000130: 983b 193f 9dc8 9a3f 2f6a 0e3f cfb5 443f
00000140: 215e 753f 7dac ee3e 2efe 8b3f b2c0 853f
00000150: df40 773f 2e79 703f 4828 7a3f 549f d83e
00000160: 50a7 0b3d 5f5c 363c ec04 703f 43e2 8e3e
00000170: 5b5d a33d 4f41 4d3f 29fa e53c b90e bc3e
00000180: d803 433e 6dbf 783f 65b2 893f 4db2 823f
00000190: cffe 623f 9e2f 4b3e 1782 ef3e eb74 6d3f
000001a0: c3a5 553f f3df e43e 8334 053e 5e59 5b3f
000001b0: ebef 883d 57ca 3c3f 4050 a83c 0f9a 633f
000001c0: 844c 8e3f 83af 3e3f 01d5 2e3f d8a0 6b3e
000001d0: a5af 4f3f 6078 1b3f 5f8c 283f 6efb 9a3e
000001e0: 10b9 8e3f 3ac6 703f 64cc 3c3f 3d47 d33d
000001f0: 1745 d73e 48c7 293e b4c7 463f 53b9 3c3f
00000200: d853 4a3f 731a 133e ba56 023e af77 453c
00000210: 3e66 213f 6837 3e3f a80c 843f 898a 853e
00000220: b12f 333d cc66 3e3f 5de1 e03e c853 353f
00000230: 9a48 943e 08df 8b3e 7a18 5b3e 88e2 8e3e
00000240: 4dd0 753f 0bbe ab3d 90bd a53e 72c9 8b3f
00000250: c3a7 2c3f 0bf5 0b3f 86f7 b63e fd90 2a3f
00000260: 9911 523f 2565 863e 787c 8a3d 43c5 a13d
00000270: 7190 8c3f 7ddd 7d3d d8ac 733f 0612 513f
00000280: a5ee 823f dad0 533e a876 3b3f 764a 963f
00000290: 3528 cc3b 4ffe 203f cde8 713f 93bd e63d
000002a0: d38d 933e 9859 f43e 289e 293e 709a 1c3f
000002b0: b760 9b3d 9c07 cf3e b6c0 eb3d 6196 133f
000002c0: d66e 443e ec2d 413f 3205 183f b807 db3e
000002d0: fc2d 483e 4457 413f cf03 cd3e 042e 843f
000002e0: 3b3b 283f bf98 2d3e 5c43 d13e dd88 283f
000002f0: d3ae 863f 703b 1b3f 7385 de3e 5a93 343f
00000300: cdab 893f c72a 5a3f b1f2 283e 9a86 bb3e
00000310: def4 af3e 1cbb 9b3f 1c55 4c3f bae9 eb3e
00000320: d2fa 3c3e b208 513d 34a4 743f 92d5 203f
00000330: 01c0 343f 6b0c 843f 0d62 ce3e 815c 963d
00000340: 864a 623f 75da a03e 0204 f83e 7a06 553f
00000350: 8d99 b33e 75aa 6f3f a666 d13e a205 653f
00000360: 9306 7f3e 3629 0d3f abf0 803f e79a 543f
00000370: 3945 443f 721b 653f 3965 913f ccc4 1c3e
00000380: 87b4 9a3d d571 ed3e 3ab5 603f 8213 853f
00000390: 34e7 9f3e 8b04 7a3f e086 343e 47ab 013f
000003a0: 0630 263f 62ae 513f 067b 463f e6c0 873e
000003b0: a2a0 8d3f beb7 4f3f 7a51 bd3d aed8 683e
000003c0: 0084 4b3c 397f 613e d445 893f d7a8 d43e
000003d0: ba78 2c3e 9aa7 be3e 6fb4 773f 9550 383f
000003e0: 773a 773f 8b4b 8a3f 96db 523b d4eb e13d
000003f0: 1e3d 753e 4061 973d 9461 eb3e 9a0a 203f
0.76359683 0.8472908 1.1015483 0.20010442 0.04666833 0.255099 0.10218078 0.047669057
0.8234201 0.2697987 0.95037645 0.22620115 1.0573142 0.96382403 0.68310106 0.19564088
0.17989427 0.95964825 0.27772063 0.13155967 1.1020619 0.7093302 0.22459684 0.6216266
0.30865034 1.076698 0.96189874 1.0053439 0.22840968 0.5874405 0.07807539 0.76275903
0.8331405 1.1630139 0.7544574 0.9101308 0.7946735 0.665567 0.052484334 0.6793618
0.25708228 1.1310723 0.5389227 0.96734226 0.9465935 0.7639714 0.8522805 0.04494652
0.027905028 1.0671676 1.0820224 0.09689724 0.9968627 0.7203653 0.4100465 0.28908595
0.023791183 0.1587789 1.0951427 1.0535334 0.5894865 0.33850053 0.11375404 1.0485599
0.97972876 0.3795829 0.872247 0.9919268 0.005785965 0.13350764 0.8527871 0.19463497
0.3109015 0.8675433 0.26008517 0.1932542 0.5985656 1.2092472 0.55630773 0.7683992
0.95846754 0.46615973 1.0936944 1.0449431 0.9658336 0.93934906 0.97717714 0.42309058
0.03409511 0.011130421 0.9375751 0.27907 0.079767905 0.8017778 0.028073387 0.36729982
0.19044435 0.9716709 1.0757567 1.0210663 0.8867006 0.19842383 0.46778938 0.9275653
0.8345606 0.4470211 0.13008313 0.8568324 0.06686386 0.73746246 0.020546079 0.8890695
1.1117101 0.7448656 0.6829377 0.23010576 0.8112739 0.6073055 0.6583919 0.3026995
1.1150227 0.9405247 0.73749375 0.10316322 0.420449 0.16579926 0.7764847 0.7372028
0.79034185 0.14365558 0.12728396 0.012052461 0.63046634 0.74303293 1.0316362 0.26082256
0.043746654 0.74375606 0.4392194 0.70830965 0.2896164 0.27318597 0.21396056 0.27907205
0.96020967 0.08385857 0.32371187 1.0920851 0.67443484 0.5467078 0.3573572 0.66627485
0.820581 0.26249042 0.06762022 0.07898953 1.098158 0.061978806 0.95185614 0.81668127
1.0229079 0.2068514 0.7322793 1.1741474 0.006230379 0.62888044 0.9449585 0.11266627
0.2881914 0.47724605 0.16564238 0.6117315 0.07586806 0.40435493 0.11511366 0.57651335
0.19182906 0.75460696 0.5938293 0.42779326 0.19548792 0.7552378 0.40041968 1.0326543
0.6571538 0.169528 0.40871704 0.65833837 1.0522102 0.6063757 0.4346119 0.7053734
1.0755554 0.85221523 0.1649883 0.3662613 0.34366506 1.2166476 0.79817367 0.46076757
0.18455055 0.051033683 0.95563054 0.6282588 0.70605475 1.031629 0.40309182 0.073418625
0.88394964 0.3141667 0.48440558 0.8321301 0.35078087 0.9361947 0.40898627 0.8946172
0.24904852 0.5514101 1.0073446 0.8304886 0.76668125 0.89495003 1.1359016 0.15309447
0.07553964 0.4637591 0.8777653 1.0396578 0.3123108 0.9766318 0.17629576 0.50651973
0.6491703 0.8190671 0.7753147 0.26514357 1.1064646 0.81139743 0.09244056 0.22738907
0.012421608 0.22021188 1.0724435 0.41535065 0.16842929 0.37237245 0.96759695 0.7199796
0.96573585 1.0804304 0.003217434 0.11031309 0.23949096 0.07391596 0.45972884 0.62516177

bias f4 [500]
00000000: b72f 1cbd 136f b53c e8d9 803b e6f3 c2ba
00000010: b402 2b3b 6eaa e1bb 974d d73b 745f 89ba
00000020: b8f5 44bb 6c9c a6bc 3ef4 79bd 2b13 9ebc
00000030: 5b9f 9cbd 9f15 09bd fd3d d33a 0b8c 2c3b
00000040: c020 de3c c126 09bd d66a 5ab9 f40c 32bb
00000050: 16f2 98bd 286d 4b3c d661 89ba 4dfa 7e3b
00000060: 2ced 893b fc5e b5bd 045e 76bc ccdf 3bbc
00000070: 63a8 ab3b 6293 803c 71c7 d33b 901b 96bc
00000080: 1fe4 1ebd 9bf0 f9bc 4fd1 53bd 4a59 94bd
00000090: 9c4e bfbd 741d 0cbd af8f 3ebb 688e 93bc
000000a0: 2d43 d63b 1715 f8bc 24f4 8f3c f3bb 3ebd
000000b0: 2110 1ebd 397b 81bb 79ff e0ba 41f6 6fbb
000000c0: 8212 343a a462 85bd f5f8 11bd 91b9 8a3a
000000d0: d88f 90bc a8fb 1abd 5ed1 1abb d66b 413a
000000e0: d7e4 ce3b eabb 2e3c 49c3 0bbe 9f84 7dbc
000000f0: 4065 fd3c 7d97 6f3b c1b5 1a3b f85d 4dbd
00000100: f399 51bc 5197 e1bc f2f5 44bd 5b8d 5bbc
00000110: 734e 853a 2b94 b7bb 0d97 97bd 5b8d b4bb
00000120: 59cd 4abc 1d59 abbd de87 e9ba 5260 12bb
00000130: 0d41 0abd 406d 16bd cfb8 153c 6d4b e5b9
00000140: 407d 28bd aa57 253c 4f9f 09be 6bbb 4ebd
00000150: 829c 11bc 319d 37bd 1460 8b39 c3dc 8dbc
00000160: 5250 7db9 834f 8dba 426c 843b 4aed d63b
00000170: 6124 16bb f82d 31bd a7bf 963a 4081 37bb
00000180: ed3d 943b e6dd 19bd f26f 40bc f5da 75bb
00000190: 056e 18bd 8dbc 6dbb 6bd9 31bc 4b9d 2abd
000001a0: 72ed 1a3c 005e be3b e601 f73a 737f 66bd
000001b0: 09b8 14bc c63d 5ebc 53ec 1a3c 03d2 22bd
000001c0: ef50 cebd cf82 b8ba 0fec 76bd 7433 07bb
000001d0: 9ba9 83bc 9c67 12bc 5f96 ec3c b181 553c
000001e0: bedb 10bd 7e0e 82bc 8a5e c3bb f0ab 81bb
000001f0: 445f 2a3c da0d 0bbb 0214 70bc cec0 35bd
00000200: ce6f 11bd 3062 b23b 63db 18bc bd3f 033a
00000210: 29f3 e2b9 3c0c 4dbd d82d 0fbd 686f f33b
00000220: 55bd 54bb 5e58 47bd ce7d 45b7 e181 50bd
00000230: e086 b9b9 7112 2abb 462f 143c f444 84bc
00000240: c8a9 34bc 64a2 9ab9 e5da 2eba 377b cdbd
00000250: 8b1a 44ba 2b4d 683b a05a 693c 69a6 a03b
00000260: 8b4b 4cbd 4e78 3a3b b678 d0ba 6989 9a3b
00000270: 1607 31bd ce01 013a b186 3fbc 9ed4 75bd
00000280: 1546 b1bc 8b0b 6ebc f49f 72bc 4dfc 8dbc
00000290: 9d9d a5ba 9098 51bd 6fd6 62bd 264a 1ebb
000002a0: 083c 143c 6349 0ebc 03e1 96bb 90dd 1cbd
000002b0: d249 e53b da41 e73b 7260 f6ba 32cc 47bd
000002c0: e52f 88bc b645 c1bc fd9f 0e3c 7c59 a63b
000002d0: 5022 f1bb 1c47 c6bc 1b78 b9bb e93d a9bc
000002e0: 96d6 afbc 7d72 3a3b 8553 5dbb 7d04 12bd
000002f0: e695 c5bd 46b7 8bbc d0e3 143c ecd9 41bd
00000300: 1de4 60bd cab7 82bc 79d2 003b b795 e4bb
00000310: 18ad 20bb 4ba8 cbbd 3c51 3b3c 5160 f3bb
00000320: 3373 313a b589 a3bb 949b d0bc 305a 00bd
00000330: 093c 7c3c 00b6 52bc fe64 51ba 0375 233a
00000340: 9ad0 43bc 7424 703a 2a7b 34bb a1cd 8ebc
00000350: f9f4 483c 7875 2bbd 99af aebc 980d fdbc
00000360: 3cea 3ebb 9a4e c0bc 7cf8 8dbc a9bb a8bc
00000370: e05c 9fbb 774c a5bb d220 adbd 150c 45bb
00000380: 2be0 6dbc f27d 3dba 4bca 78bd 25fe c8bb
00000390: 5a56 01bd f19c 77bd 0a36 613c b0e6 3dbb
000003a0: de26 5bba deaf 01bc 8af3 6b3c 45ce 8cbb
000003b0: f571 bbbb 29dc c7bb 2dec 41ba 14b4 17bb
000003c0: 784c 96ba 3d8c 2cbc 2d3c 84bc d1fc aebb
000003d0: eace 51bc 98ee 97b9 d145 24bd f260 babc
000003e0: c145 48bc 7c42 f8bd 3b46 ce39 3221 c7ba
000003f0: 756a 863a 2a56 89ba 536e aa3b 6671 a838
-0.038131442 0.02214769 0.0039322264 -0.0014873713 0.002609414 -0.006886772 0.0065705287 -0.0010480718
-0.0030053686 -0.02033826 -0.061023943 -0.01929625 -0.07647582 -0.033467885 0.0016116496 0.002632859
0.027115226 -0.033484224 -0.000208299 -0.0027168365 -0.07468049 0.012416162 -0.0010481428 0.0038906515
0.0042091813 -0.088560075 -0.0150370635 -0.011466932 0.005238579 0.015695278 0.0064629843 -0.01832369
-0.038791772 -0.030510237 -0.051713284 -0.07243593 -0.093411654 -0.034207776 -0.0029077341 -0.01801224
0.0065387697 -0.030283494 0.01757247 -0.04656596 -0.0385896 -0.003951457 -0.001716598 -0.0036615285
0.0006869213 -0.06512955 -0.035637815 0.0010583868 -0.017646715 -0.037837654 -0.0023623328 0.00073784345
0.006313901 0.010664919 -0.13648714 -0.015473514 0.030932069 0.00365588 0.002360687 -0.050138444
-0.012793052 -0.027537974 -0.048086114 -0.013400401 0.0010170474 -0.00560238 -0.074018575 -0.005510015
-0.01237806 -0.083666064 -0.0017816981 -0.0022335243 -0.033753444 -0.036725283 0.0091383 -0.0004373448
-0.041135073 0.0100917015 -0.13439678 -0.050471704 -0.008887412 -0.044827644 0.0002658373 -0.017317181
-0.00024157882 -0.0010781143 0.0040412256 0.006559049 -0.0022909867 -0.04325673 0.0011501209 -0.0028000623
0.0045239837 -0.037565134 -0.01174544 -0.0037514542 -0.037214298 -0.0036275715 -0.010855059 -0.041653913
0.009456025 0.0058095455 0.001884517 -0.05627389 -0.0090770805 -0.013564533 0.009455758 -0.039751064
-0.100740306 -0.001407707 -0.060283717 -0.0020630034 -0.016072085 -0.008935835 0.028880296 0.013031409
-0.035365812 -0.015876051 -0.0059621977 -0.003957264 0.01039869 -0.0021217973 -0.014653208 -0.044373326
-0.035507016 0.005443834 -0.00932965 0.0005006751 -0.00043287248 -0.050060496 -0.03495583 0.007429052
-0.0032461483 -0.048668258 -1.1771406e-05 -0.050905112 -0.0003538644 -0.0025950933 0.009044474 -0.01614616
-0.011026807 -0.0002949416 -0.0006670191 -0.10033267 -0.0007480762 0.0035446386 0.014242798 0.00490265
-0.04987673 0.0028453055 -0.0015905115 0.0047160876 -0.04321965 0.00049212284 -0.011689828 -0.06001722
-0.021639863 -0.014529119 -0.014808644 -0.01733222 -0.0012635473 -0.051170886 -0.05538028 -0.0024153083
0.009047516 -0.008684489 -0.00460446 -0.038297236 0.0069973255 0.0070574107 -0.0018797053 -0.04877872
-0.0166244 -0.023592811 0.008705136 0.0050765853 -0.0073588267 -0.02420383 -0.0056600696 -0.020659404
-0.021464627 0.0028449588 -0.0033771705 -0.03564881 -0.096477315 -0.017055165 0.009087518 -0.047326967
-0.054905046 -0.015956778 0.0019656701 -0.006975855 -0.0024517234 -0.09944209 0.011432942 -0.0074272533
0.000676918 -0.004990781 -0.02546481 -0.03133601 0.015395173 -0.012860775 -0.00079877663 0.00062353926
-0.01195159 0.00091607054 -0.0027539232 -0.017432036 0.012265437 -0.041860074 -0.021323966 -0.030890271
-0.0029131314 -0.02347498 -0.0173304 -0.020597296 -0.0048633665 -0.0050445157 -0.084535256 -0.0030067016
-0.014518778 -0.0007228545 -0.060739797 -0.006133812 -0.031576492 -0.060452405 0.013745794 -0.0028976612
-0.00083599787 -0.007915465 0.014401326 -0.00429705 -0.005720372 -0.006099243 -0.00073975587 -0.0023148106
-0.0011466881 -0.010531482 -0.016141975 -0.0053401967 -0.01280568 -0.0002897873 -0.040105645 -0.022751305
-0.012223662 -0.12122056 0.00039343708 -0.0015192388 0.0010255115 -0.0010477949 0.00520114 8.031986e-05

running_mean f4 [500]
00000000: eb9e ab3d 6490 98bd 71c0 9bbe fdfb 96bd
00000010: 3447 f73c 3c72 28be aebf 893e beaf b6bd
00000020: 2b61 863d e499 2cbd f2d0 17bd 008a 84bd
00000030: f734 5dbd 1b8b 683e df04 043e e53d 8bbd
00000040: 7bd2 d6bd c52b 97be 92fb f93c f0c7 483e
00000050: 977f a5bd 1f73 b43d b539 20be 58ed 26be
00000060: a7ff a83d 8ac2 b937 97f9 b4bd f251 5e3d
00000070: b284 b63d d9ab b43b 7bc4 cbbc f038 64bb
00000080: 3f7b 05be 9124 93bd ea73 70bd 663f 8dbd
00000090: c671 1fbe ca6f 77bd db49 54bd a6d3 f2bc
000000a0: 518a 9c3d 6260 1ebd 52db ca3d ab47 d2bd
000000b0: 9b37 ee3d 410d 7c3e e55a a53c ed43 03ba
000000c0: f392 bf3d 0eef debc f7de 063e a64e ee3d
000000d0: 7f94 ea3d d5f0 10bd 5007 36be 8c5f a53d
000000e0: 4e2a c4bc d107 7f3d c387 26be ba58 a2bd
000000f0: 2661 4b3d 5cd9 a33c ecf1 333e 2927 efbb
00000100: dfa8 903d 9c46 11bd ed75 c8bd ccc2 5d3e
00000110: 4d21 11be c21e b03d f037 c4bd df5f 833d
00000120: 877d 8c3d 3979 2fbe d7b5 d33d 4deb 86be
00000130: b024 98bd b40f 153e d22a d03d d886 7ebe
00000140: a8d4 39bc 05ec 203e 62d2 68bc a470 6a3e
00000150: ad66 443e a8e1 ab3d 94b6 4abd f7a4 c3bc
00000160: 0813 283d 0935 83be f7d7 acbd 65c9 a9bd
00000170: 0dff 153d 367a b8bd 29f8 883c 908c 2fbe
00000180: e162 d8bd 2c32 a4bd 8709 553c 4a63 e93c
00000190: 24c9 b73d cdef be3c ab9e 20bd 7530 20bd
000001a0: 5fee 39be fb1c 0abe 8283 973c bae3 c63d
000001b0: 272a 8d3d ffe2 33be bd67 37bd f32f 0abe
000001c0: 95b8 263e a196 41bd 732b 48bc 754a 7cbd
000001d0: cc87 243c cae0 163e 4bb7 e9bd b54e 44bc
000001e0: c4c3 333e 134d 4dbe 66ce 053d 609c 473e
000001f0: a5fd c33d 70ee f1bb 3795 71bd 95b8 163e
00000200: e15d 20bc da31 c83d 84c8 a2bc 9b25 3fbe
00000210: d2f9 91ba 7f1f 8bbe d93f bb3b b098 c6bb
00000220: fd04 0bbd 69e1 493d c44e c2bd 52ef 4b3e
00000230: d91a b83c 4fbc 65bd cfaf 4f3c 8a6c c0bd
00000240: f4b8 b2bd 3003 b43d 9712 b43d b49a 67bc
00000250: 0388 d33d ee35 e5bb b047 7dbe 600d 583e
00000260: a25d a7bc e591 b93d 1557 b5bd fc1b fabd
00000270: f4f0 683e ab21 c7bd 520c 06bd 43a8 0f3d
00000280: 8d17 023d 81db 65bd 8db9 02be f207 c93d
00000290: 9861 6abd 910e 463e 96b3 c43d b3c8 21be
000002a0: f428 243d bfad af3d c113 84bc ac1f 393d
000002b0: 11ae 58bd e684 5dbc eb82 3ebd 0f30 00bd
000002c0: 081a 9d3c b5e2 c63d c200 4ebd a9f2 6ebc
000002d0: 819f 603d 8247 c63d b810 1f3e 235e f6bc
000002e0: bcc5 f23d 9c5f 9e3d 7d93 3dbe 964e 27be
000002f0: b3bc be3d 53f4 153c e508 e83d e049 e73c
00000300: 7e7f aa3d 979b 53bd 8ad8 f9bd fd24 09be
00000310: efad f53c 6358 df3d ebda edbd 2458 a23d
00000320: c416 4bbd 01c1 793b 203b b4bc a206 3abd
00000330: d7c8 a6bd 22e3 133e 1d96 07bd 7111 e73d
00000340: eb62 ad3d 14d3 fbbd 90f9 be3d 562c 05be
00000350: e86a b03d 823a 063d cbe0 5abc 581b cb3d
00000360: b1fc 02be 0ab9 a23d 21fe 9abc 9c1f de3d
00000370: cdcc 5abe df48 9c3d b8a3 0d3e 11ac 043e
00000380: 992b 10be 6f0e 1fbb 73a1 4bbe 4626 053e
00000390: 7a53 7c39 2473 bebc 29ff 13bd 4a58 79be
000003a0: bd48 ea3d 5bb2 493d 505a c33d a778 ef3d
000003b0: adb4 5f3c b214 213d 95d2 1b3d 1f9e 8dbe
000003c0: c349 873d 96bd d83d 1380 d4bd 9f99 ca3d
000003d0: e4ad 56be fcca b43d 8b1f 49bd 7f79 03be
000003e0: e860 21bd 538b 70be 6ff5 14bd 4b4c 88bc
000003f0: 3306 a03c 2d71 ea3d eb5c 023e 65b6 e4bd
0.083799206 -0.07449415 -0.3042026 -0.07372282 0.03018532 -0.16449827 0.26904052 -0.08920239
0.06561502 -0.04213895 -0.0370645 -0.06471634 -0.05400559 0.22709315 0.12892483 -0.06798915
-0.10489365 -0.2952558 0.030515466 0.1960752 -0.080809765 0.0881102 -0.15647013 -0.16301477
0.08251887 2.2144308e-05 -0.08836668 0.054277368 0.08912028 0.00551365 -0.024873963 -0.0034823976
-0.13035296 -0.07184709 -0.058704294 -0.06896858 -0.15570745 -0.060409345 -0.051828247 -0.029641937
0.07643569 -0.038666137 0.09905113 -0.10267576 0.116317 0.24614431 0.020184943 -0.0005007375
0.093542 -0.0272136 0.13170992 0.11636095 0.11454105 -0.035385925 -0.17776227 0.08074865
-0.023945954 0.062263314 -0.16262726 -0.079270795 0.049653195 0.020001106 0.17572755 -0.0072983694
0.070634596 -0.03546773 -0.097881176 0.2165634 -0.1417286 0.085996166 -0.09580982 0.0641477
0.0685988 -0.17136087 0.103374176 -0.26351395 -0.074288726 0.14556772 0.10164417 -0.24856126
-0.011342205 0.15715034 -0.014210315 0.22894531 0.19179793 0.0839265 -0.049490526 -0.023882372
0.041033775 -0.256264 -0.084396295 -0.08290366 0.03662019 -0.09007685 0.016719894 -0.17143464
-0.10565735 -0.08017382 0.01300276 0.028489728 0.089739114 0.023307705 -0.039213818 -0.039108712
-0.18157338 -0.13487618 0.018495325 0.09711404 0.068928055 -0.17567061 -0.044776667 -0.13494854
0.1628135 -0.04726279 -0.01221739 -0.061594445 0.010042142 0.14734188 -0.114119135 -0.011981656
0.17555147 -0.20048933 0.03266754 0.19493246 0.09569863 -0.0073831603 -0.058980193 0.1471885
-0.0097880075 0.097751334 -0.019871004 -0.18666689 -0.0011137074 -0.27172467 0.0057143983 -0.0060606822
-0.033940304 0.049287234 -0.094876796 0.19915512 0.02247374 -0.05608779 0.012676193 -0.09395702
-0.08726683 0.087896705 0.08792608 -0.014136005 0.103286766 -0.0069949543 -0.24734378 0.21098852
-0.02043039 0.0906103 -0.088545 -0.12212369 0.22748166 -0.097232185 -0.032726593 0.035072576
0.03176074 -0.05611754 -0.12766095 0.098159686 -0.05722198 0.19341494 0.09604566 -0.15799217
0.04007812 0.08578061 -0.0161227 0.04519622 -0.052900378 -0.013520455 -0.04651157 -0.031295832
0.019177452 0.0971121 -0.05029369 -0.014584222 0.054839615 0.09681608 0.15533721 -0.030074185
0.11854121 0.0773308 -0.18513294 -0.16338572 0.09313335 0.00915249 0.113298215 0.028233469
0.083250985 -0.051662054 -0.12199505 -0.13393016 0.029990165 0.1090553 -0.11614021 0.07926968
-0.049582258 0.0038109424 -0.02200085 -0.04541648 -0.08143776 0.14442113 -0.033102144 0.112826236
0.08466133 -0.12296119 0.09324944 -0.13005194 0.08614141 0.03277064 -0.013359259 0.09917325
-0.12791707 0.0794545 -0.018920006 0.10845873 -0.21367188 0.076310866 0.13831985 0.12956263
-0.14079131 -0.0024270078 -0.19885807 0.13002881 0.0002406369 -0.023248263 -0.03613201 -0.24350086
0.11439655 0.04924236 0.0953871 0.116929345 0.013653916 0.039326377 0.038042624 -0.276597
0.06605866 0.10583036 -0.10375991 0.09892582 -0.20964772 0.08827779 -0.049102347 -0.12839316
-0.039399058 -0.23490648 -0.036366876 -0.016637942 0.019534206 0.11447368 0.12730758 -0.111676015

running_var f4 [500]
00000000: 2811 7a39 b4a6 c439 d150 2e3a 3b67 6b39
00000010: 0cce 1939 06e2 b539 38ec ad39 5945 bf39
00000020: f8d9 8039 f333 023a 5ba1 df39 05f8 043a
00000030: f0b8 293a 729d d639 45e7 bf39 9c94 9339
00000040: 75d4 1a3a 1e37 1b3a 308f bc39 4d42 103a
00000050: de2d 113a 45b6 9b39 8c49 8d39 b56c bb39
00000060: 9df9 e939 144c 023a 5f49 e039 0dd7 ad39
00000070: b0a8 be39 91f1 9c39 ad12 ed39 738f 8a39
00000080: bc09 db39 ea92 1e3a 61f1 ab39 fead ee39
00000090: c10f b639 d1b0 8539 62c6 5739 f593 8739
000000a0: e5d5 d839 c806 093a f654 ac39 a65c a339
000000b0: d1a6 f039 82a7 7a3a bede 8339 08bd 8a39
000000c0: 728b 5539 9bb4 0f3a 5fb7 2e3a 00c8 b139
000000d0: a151 023a f41e 8939 a8a8 003a 58e1 b239
000000e0: 00dc ce39 759e 0b3a f914 dd39 bb88 c639
000000f0: 236c 9a39 ce0b 5839 42d5 9939 abbe e339
00000100: e0af b239 5782 7939 8286 a039 03f4 9139
00000110: aa1c c139 4646 9839 90dc 9d39 c846 8439
00000120: 4b20 a439 4122 cf39 5ce9 f539 93e0 f739
00000130: 64d4 cf39 8241 3a3a 76ab e539 f5ca ad39
00000140: 9c41 0a3a 6b04 9039 8bdb 083a d17d 2c3a
00000150: 1cb8 133a e970 e139 f93f b339 70d8 7d39
00000160: b7ea e739 3632 ad39 47ca f839 3da1 9e39
00000170: 6461 b039 2e8c a339 ee4e 9539 b676 8939
00000180: c084 c939 bfe5 dd39 6620 773a b7e2 d139
00000190: a69a aa39 f35d e939 d1e7 9839 d9a7 d839
000001a0: 61f0 7a39 cc8a c639 c779 9539 d0aa ba39
000001b0: aea2 cd39 734b 1739 f366 d239 ebfb cb39
000001c0: 3925 003a 2166 9739 f9d5 6139 9c0d 9e39
000001d0: 2f54 cf39 c3ff 9339 e0f3 be39 45ca 7339
000001e0: 4d3b 3d3a ac50 f139 62b4 4f39 fa42 033a
000001f0: 52c8 5a39 f720 f039 160c 353a e513 8939
00000200: c822 b639 ebde 9539 e7b6 f639 4c79 153a
00000210: ea7e 7939 b2ad 9d39 d92f c439 06c3 c839
00000220: ebb2 b439 9904 b839 03d8 c839 30bc 9039
00000230: c69f b839 8804 9039 cf81 ac39 1bc7 383a
00000240: 2f12 c339 61f5 8d39 e9d8 8d39 ade1 eb39
00000250: 6e92 bb39 efc7 a639 6609 e039 fe62 a639
00000260: 1170 be39 210c 053a 392d 5a39 e669 ae39
00000270: e310 3f3a e334 6f39 d143 cc39 40fc b139
00000280: 1ec3 a539 c460 7839 baab a239 bc54 373a
00000290: 746a a739 e206 9139 1a87 a239 08e1 a539
000002a0: 03a6 5339 4b45 5e39 266b c439 b87b 9c39
000002b0: 55df af39 1824 9739 abed 9d39 a3e4 a339
000002c0: 2557 8939 0f95 9439 28a7 6939 dd08 da39
000002d0: eeb6 4b3a 93b6 9c39 bc5d 9439 f766 8239
000002e0: f6b9 9e39 5b65 bd39 0704 d539 9ff3 8539
000002f0: 0afa 143a e328 5339 4811 7d39 f46f 8539
00000300: 66f6 f139 f95c 9439 2c9a b439 bf79 8239
00000310: 5d66 5839 939a 413a 7de9 003a 0ae7 8f39
00000320: 4e3c 8c39 3b0c c239 2b3c c339 84ea 4d39
00000330: 12b3 8b39 fa43 c839 1adf a139 0510 c839
00000340: 55eb ee39 6332 8539 079e c039 e555 af39
00000350: 20c9 7839 e464 dc39 64ee 8139 fd3d b439
00000360: 50ca 173a 763a 3139 c323 fa39 58b7 a139
00000370: ab4e fa39 72ae 1a3a 8592 0a3a e6a4 a039
00000380: 2e7b c839 a11d 8539 39a4 c939 fb12 e339
00000390: 459d 8739 ef1c 8739 49f9 4e39 159d 353a
000003a0: 8e11 103a 574a a639 e5f7 d139 d760 b039
000003b0: eb83 6e3a 706f 9539 34c9 5d3a ce3f b139
000003c0: 0fad a639 19d2 063a 629d 293a a56c 7439
000003d0: 598e f439 6030 8b39 5238 d239 d985 9e39
000003e0: ec85 d439 9d33 1a3a 20c6 a639 2eb4 033a
000003f0: 25b5 7e39 dac6 033a c91a 8c39 3cd2 9439
0.00023848249 0.00037508237 0.0006649616 0.00022449803 0.00014667975 0.0003469141 0.00033173128 0.00036482027
0.00024576462 0.00049668475 0.00042654094 0.0005072358 0.0006474396 0.00040934567 0.00036602668 0.00028148748
0.00059062924 0.0005920994 0.00035964837 0.00055030436 0.0005538146 0.00029699705 0.00026948412 0.00035748412
0.000446272 0.0004970443 0.00042779275 0.00033157357 0.00036365306 0.0002993462 0.00045218077 0.0002642829
0.00041778188 0.00060491136 0.00032795503 0.00045524532 0.00034725483 0.00025499475 0.00020577901 0.00025859443
0.00041358094 0.0005227146 0.00032869697 0.0003115881 0.00045900655 0.0009561704 0.00025152223 0.0002646225
0.0002036521 0.00054819294 0.00066648977 0.00033909082 0.000497127 0.00026153738 0.0004907944 0.000341187
0.00039455295 0.0005326041 0.0004216803 0.00037867375 0.00029453737 0.00020603763 0.00029341324 0.00043438873
0.00034081843 0.00023795046 0.00030617794 0.00027838358 0.00036833185 0.00029044057 0.00030109705 0.00025229738
0.00031304578 0.00039507638 0.00046903908 0.00047278832 0.0003964036 0.00071050983 0.00043806032 0.00033148346
0.0005274059 0.00027469112 0.0005220703 0.00065800274 0.00056350394 0.0004299947 0.00034189204 0.0002420859
0.0004423463 0.0003303454 0.00047452954 0.0003025624 0.00033641898 0.00031194225 0.00028478302 0.00026219123
0.00038436614 0.0004232358 0.000942713 0.00040032502 0.0003254015 0.0004451122 0.00029164416 0.00041323787
0.00023931406 0.00037868915 0.00028510226 0.0003560395 0.00039221853 0.00014428589 0.00040131024 0.0003890687
0.0004888359 0.00028877056 0.00021537383 0.00030146248 0.00039544838 0.00028228582 0.00036421325 0.00023249637
0.00072186143 0.00046027207 0.00019808256 0.00050072337 0.00020864725 0.00045800928 0.0006906403 0.000261455
0.0003473966 0.00028585581 0.0004705705 0.00057019736 0.0002379377 0.00030074787 0.00037419682 0.00038292276
0.0003446558 0.0003509864 0.00038307914 0.0002760603 0.00035214255 0.00027469196 0.0003290311 0.0007048712
0.00037206846 0.00027076437 0.00027055226 0.00044990834 0.00035776518 0.0003181095 0.00042731612 0.00031735742
0.0003632312 0.0005075355 0.00020806947 0.00033266767 0.0007288588 0.00022812518 0.0003896044 0.00033948012
0.00031616626 0.00023687171 0.00031026994 0.00069935224 0.00031932036 0.00027661683 0.00030999706 0.00031638914
0.00020184372 0.00021197383 0.00037463865 0.00029846816 0.00033544996 0.00028827856 0.0003012245 0.0003126013
0.00026195604 0.00028339817 0.00022282882 0.00041586804 0.0007771094 0.00029890667 0.00028298597 0.00024872247
0.0003027466 0.00036124405 0.00040629526 0.0002554925 0.00056830107 0.0002013776 0.00024134398 0.00025451148
0.00046150683 0.0002829803 0.00034447142 0.0002488624 0.00020637499 0.0007385399 0.0004917605 0.00027447223
0.0002674781 0.00037011676 0.00037238127 0.00019637687 0.00026645564 0.0003819762 0.00030874537 0.00038158908
0.00045570233 0.00025405278 0.00036738833 0.00033442597 0.00023726048 0.0004203684 0.00024782412 0.0003437846
0.000579034 0.00016901814 0.0004771036 0.00030844915 0.00047742328 0.0005900628 0.00052861153 0.00030640437
0.0003823875 0.00025389812 0.00038460063 0.00043310956 0.00025866381 0.00025770764 0.00019738557 0.0006928009
0.000549578 0.00031717375 0.00040048282 0.00033641487 0.0009098637 0.00028502522 0.00084604626 0.0003380761
0.00031790926 0.00051430013 0.000647029 0.00023310127 0.00046645364 0.00026548188 0.00040096283 0.00030235833
0.0004053557 0.0005882325 0.00031809602 0.0005024102 0.00024290809 0.00050268846 0.00026722837 0.00028385397

weight f4 [1, 500]
00000000: 7fa1 9b3e 9ab2 04bf 9a33 31bf 3e23 c7bc
00000010: eb30 ae3c 3d71 c3bd 3b0a 1fbd ce07 743b
00000020: b513 1d3e 0426 cb3d fcd4 e73e eda5 b03d
00000030: 0bef 40bf 8ef3 093f e9c7 7fbe 817b 7dbd
00000040: 3b68 a13d adcd d03e 6756 56bc 0667 31bb
00000050: f78d 1a3f 7c47 b83e 2ad3 52bd 82dc 123e
00000060: eb8b 4cbd cb5c 1dbf 982f 923e e5a8 b0be
00000070: 55d8 3dbd 4688 773e 81c9 4cbd 7f6d c4be
00000080: d199 fb3e c3f3 2ebf 58c4 fe3e 621c 21bf
00000090: 8e58 003f 4000 da3e e9c5 843c c9c2 a93e
000000a0: 77b2 debb 79bf 0cbf 6456 04be 371d ab3e
000000b0: 4dad f3be 7b23 64bd fb70 9bbe 1375 893c
000000c0: c482 3abb 8234 0dbf aa0e 3c3f 1b08 9b3b
000000d0: 601a fdbe 3525 d63e 6ba5 a9bd e2dd 13bd
000000e0: 65d9 ddbc 1871 25bd 0944 01bf a8ce ccbe
000000f0: b3a9 a3be 0468 193e b89c f8bc 2bd4 e0be
00000100: 71a2 d6be 6e00 5cbe 28c9 973e fbff a53e
00000110: b61b d03c 7174 593c b4cf e5be c483 55bd
00000120: 0c3d c63d 9914 193f de34 cd3c e210 bd3b
00000130: 3274 ba3e 1f88 36bf f8bc f4bd 03fe 9d3e
00000140: 8400 fc3e 39ee 803e 880e 303f df9e 1cbf
00000150: a296 143f 0160 29bf 710f 6abe ef0a 5ebe
00000160: 8c4d 5cbc deeb 2c3c 1113 3c3e beb5 f63d
00000170: dd47 e9bb 4048 da3e 79f7 e1bc 4175 94bb
00000180: 18e8 8d3d c403 13bf 90bf 143f a961 9a3e
00000190: 2c03 febe 665e 2b3d 9347 113e 2bb5 bdbe
000001a0: 8775 83be e353 943d c856 2abd c1e2 073f
000001b0: 3695 2e3d bb4f 20be 867a dfbc 2f79 b93e
000001c0: 22f2 2f3f 4044 bfbe 8f71 973e f8b9 7fbc
000001d0: cc67 e43e 5732 2b3e f918 f6be 93dc 26be
000001e0: a2ba 263f 166a 1dbe 35aa 96bd eb77 083d
000001f0: 150d 193e f9c0 70bd ce43 1cbe 3789 ac3e
00000200: b6e0 9a3e e9a4 8b3d a1dd 3cbd 5d3d d0bc
00000210: 67d9 f3bd 55e3 c63e b8cf 09bf e4a5 803c
00000220: cc5f 96bc bc30 de3e 9f2b 783d 0301 d6be
00000230: 40f4 553d 6535 50bc fff4 9e3d e2f0 aebd
00000240: 6a07 0d3e 53c3 2ab9 486c 7c3c 1901 0ebf
00000250: 1586 21be 9bd2 19be d721 213e df58 db3e
00000260: a309 08bf f1d1 fdbb 0d08 29bd c726 7bbc
00000270: aabb 4ebf 8acb 83bc 0d1d e0be 0972 19bf
00000280: 04fa cf3e 33e2 d13d 940a f2be da26 4a3f
00000290: 17ce c63c 805b d63e 5846 edbe 9782 abbc
000002a0: 05dd cdbd bdd5 5bbe 630c c8bc e172 733e
000002b0: fe09 15bd 6660 2dbe 64ec 3cbc 419f ac3e
000002c0: 4fb8 02be 7410 7a3e 2494 76be 3aa1 d3bd
000002d0: 85e0 353d d177 f6be c674 b33d 8c1e a43e
000002e0: b0da 1a3e d7da ebbc 0719 cdbd b88e d0be
000002f0: 81f1 193f b364 b3be 8b93 2fbe c24b c4be
00000300: a5d2 e83e 0c26 c4be 0916 3e3d 2cd7 2b3e
00000310: 16c3 6cbd 55f5 373f 11b0 d7be b940 9b3e
00000320: 9180 b03d d169 1b3c 72fe f63e dbe4 c3be
00000330: 7378 95be 565f aabe 6ce1 033e d105 b3bb
00000340: 3886 df3e d3c7 3a3e f5c1 263c b936 b23e
00000350: 8cfa f23d 9d6e 063f 7494 253e d5a8 cd3e
00000360: 8436 4cbb 1b0b 903e c447 c8be 17af d5be
00000370: b50d c53d 5593 64be 9d1c 1d3f fefb 4d3d
00000380: c8da 4a3d 0dc3 d6bc 2509 0f3f ffb0 ffbe
00000390: 03bb 073e 2ea8 963e 8df9 a0bd 5a09 113e
000003a0: ebee 16be 9c97 d9be b608 bbbe c467 c23d
000003b0: f7a3 053f f9da 243e 5b76 1c3c f540 b73d
000003c0: 113b 7c3c 7687 e53d ea9d 1e3f 1bae e8bd
000003d0: f2b3 263d c3c4 c7bd eef1 e33e 94b2 943e
000003e0: b105 ab3e 2716 343f 6c8b 02bb 0ada 31bc
000003f0: e4d8 343d 7266 743c 727b 5d3d d71c da3e
0.3039665 -0.51835024 -0.6921936 -0.024308797 0.02126356 -0.09543083 -0.038828116 0.0037236097
0.15339549 0.0991936 0.45279682 0.08625398 -0.7536475 0.5388726 -0.24978603 -0.06188536
0.078812085 0.40781918 -0.013082123 -0.0027069463 0.6037287 0.35992038 -0.051470913 0.1434193
-0.049938124 -0.61469716 0.28551936 -0.34503856 -0.04634889 0.24173078 -0.049996857 -0.3836479
0.4914079 -0.683407 0.49759173 -0.62933934 0.50135124 0.42578316 0.016207652 0.33156422
-0.006796177 -0.54979664 -0.1292358 0.33420727 -0.47593156 -0.0556979 -0.30359635 0.016779458
-0.002845929 -0.55158246 0.73459876 0.004731191 -0.49434185 0.41825262 -0.08283504 -0.036100276
-0.0270812 -0.040391058 -0.5049444 -0.40001416 -0.31965408 0.14981085 -0.030348167 -0.4391187
-0.41920808 -0.21484539 0.29645658 0.3242186 0.025403839 0.013272391 -0.44885027 -0.052127615
0.096796125 0.59797055 0.025049623 0.005769835 0.36416775 -0.71301454 -0.119501054 0.30857858
0.49219143 0.2518175 0.6877217 -0.6117992 0.5804235 -0.66162115 -0.22857453 -0.21683858
-0.013446223 0.010554282 0.18366648 0.12046383 -0.0071191625 0.42633247 -0.027583824 -0.0045305793
0.06929034 -0.5742762 0.581048 0.30152634 -0.49611795 0.041838072 0.1418746 -0.37052283
-0.25675604 0.072425626 -0.041586667 0.53080374 0.042622767 -0.15655415 -0.027280103 0.36225268
0.6872884 -0.37356758 0.29578826 -0.015608303 0.4461044 0.16718422 -0.48065928 -0.1629508
0.6512853 -0.153725 -0.07356683 0.033317488 0.14946397 -0.058777783 -0.1526024 0.33698437
0.30249566 0.068185635 -0.0461098 -0.025419885 -0.119067006 0.38845316 -0.5383258 0.015704103
-0.018356226 0.43396556 0.060588475 -0.41797647 0.052234888 -0.012708043 0.07761573 -0.085420385
0.1377236 -0.00016285227 0.015406676 -0.55470425 -0.15773804 -0.15021746 0.15735565 0.4284124
-0.53139704 -0.007745974 -0.041267443 -0.015329069 -0.807551 -0.016088266 -0.43772164 -0.5993963
0.40620434 0.10248222 -0.47273695 0.7896553 0.024268193 0.41866684 -0.4634273 -0.020936294
-0.10051922 -0.21468253 -0.024419969 0.23774292 -0.036386482 -0.16931304 -0.011530969 0.3371525
-0.1276562 0.24420339 -0.24079949 -0.10333486 0.04440357 -0.48138288 0.08762507 0.32054555
0.15122485 -0.028790874 -0.10014539 -0.40733886 0.6013413 -0.35037765 -0.17146127 -0.3833905
0.4547321 -0.38310277 0.046407733 0.167813 -0.057803236 0.7185872 -0.42126516 0.30322817
0.08618272 0.009485678 0.48241 -0.3826054 -0.29193458 -0.3327586 0.1287896 -0.00546334
0.43657088 0.1824029 0.010178079 0.34807375 0.11864194 0.5251253 0.16169912 0.4016787
-0.0031160424 0.28133473 -0.39117253 -0.41735145 0.09621755 -0.22321828 0.61371785 0.050289147
0.049525052 -0.026216054 0.5587333 -0.49939725 0.13254933 0.29425186 -0.07860098 0.14163724
-0.14739577 -0.4249848 -0.36530083 0.09492448 0.52203315 0.16099156 0.0095497025 0.089479364
0.015394942 0.11207478 0.6195971 -0.11361333 0.040698953 -0.09754326 0.44520515 0.29042494
0.3340278 0.703463 -0.0019919528 -0.010855207 0.044152156 0.014917003 0.054072805 0.42600128
