1b/BOW_default.model (torch_old, 75629 bytes, 7 tensors)

weight f4 [50, 300]
0	0x3ca70cf0	0.020391911
1	0xbd2c7781	-0.042106155
2	0x3c1867a4	0.009302054
3	0xbd202a6b	-0.039102953
4	0x3acea9f0	0.0015767198
5	0xbc470de0	-0.012149304
6	0x3d5bb52c	0.053639576
7	0xbc1266b0	-0.008935615
8	0xbd2f6514	-0.042821005
9	0x3ce7ae7b	0.028281441
10	0xbd100649	-0.035162244
11	0x3d894137	0.06701892
12	0x3d411444	0.047138467
13	0x3b1f205f	0.002428077
14	0x3c565e0f	0.013083949
15	0xbc930a73	-0.017949319
16	0x3d0d7d17	0.034543123
17	0x3aaeb1da	0.001332815
18	0x3b91775b	0.004439277
19	0xbc82f2e0	-0.015984952
20	0x3d832f34	0.06405488
21	0x3d35e155	0.044404346
22	0xbca8c204	-0.020600326
23	0x3cce0acb	0.02515163
24	0x3d606bb2	0.054790206
25	0xbc25fedd	-0.010131565
26	0xbd6b6881	-0.05747271
27	0xbd7bfd36	-0.061520778
28	0x3c3375f7	0.010953418
29	0x3cdd9779	0.027049767
30	0x3ac23871	0.0014817846
31	0x3ac660e6	0.0015135079
32	0xbc845d5d	-0.0161578
33	0xbd41bf67	-0.047301676
34	0xbc9599f0	-0.01826188
35	0xbd0930a8	-0.033493668
36	0xbd12d462	-0.035847075
37	0xbd6540d7	-0.05597004
38	0xbb89f692	-0.0042103017
39	0x3d77059f	0.060308095
40	0x3d456e19	0.0482007
41	0xbc58878d	-0.013215912
42	0xbddbf0ec	-0.107393116
43	0xbdb2c6b2	-0.087293044
44	0xbda44eb1	-0.08022822
45	0xbd90dd87	-0.07073503
46	0x3cbb67a9	0.022876577
47	0x3d3356b5	0.043783862
48	0x3d1c2ddd	0.038129676
49	0xbc2ab955	-0.010420163
50	0x3cedeb8e	0.029042985
51	0xbd18ac94	-0.03727396
52	0xbd9ac3c4	-0.075568706
53	0x3d950005	0.07275394
54	0xbd49160a	-0.049093284
55	0xbe0c0675	-0.13674338
56	0xbccc5024	-0.024940558
57	0xbc342d89	-0.010997185
58	0x3d20e4d0	0.039280713
59	0xbc6bbab5	-0.014387776
60	0xbc61154c	-0.013737988
61	0x3c8384f8	0.016054615
62	0xbc852254	-0.01625172
63	0xbce8494a	-0.02835526
64	0x3cb0e9b7	0.021595819
65	0x3c95da77	0.018292649
66	0x3ce422fa	0.02784871
67	0xbcaa348d	-0.020777011
68	0xbd169afe	-0.036768906
69	0xbbde6b48	-0.0067876913
70	0x3d0d8828	0.034553677
71	0x3d451e9c	0.048124894
72	0x3c6338c7	0.013868517
73	0x3d0e9bfd	0.03481673
74	0xbd87f636	-0.06638758
75	0x3dba3585	0.09092239
76	0xbdabe57c	-0.0839338
77	0xbce5e57b	-0.028063526
78	0x3d0c2bf5	0.03422161
79	0xbd2806ee	-0.041022234
80	0xbd4d43df	-0.050113555
81	0xbd9c61b9	-0.076358266
82	0xbd0fc55b	-0.035100322
83	0xbd276369	-0.04086629
84	0xbd0abd85	-0.033872146
85	0xbcb19183	-0.02167583
86	0x3c86dc28	0.0164624
87	0xbb94cbe7	-0.0045409086
88	0x3c69d7ca	0.0142726395
89	0x3b53c3d5	0.003231277
90	0xbcfd6960	-0.030934036
91	0x3c85d6ea	0.01633783
92	0xbd379a77	-0.044825044
93	0xbd548278	-0.051882237
94	0xbcc5a8ac	-0.02412828
95	0x3d7ee592	0.062230654
96	0x3c4cee70	0.01250802
97	0x3d94046c	0.07227406
98	0xbc8a7d52	-0.01690546
99	0xbb208aa8	-0.0024496708
100	0xbd410d93	-0.047132086
101	0xbd6f7768	-0.058463484
102	0xbcedbf27	-0.029021813
103	0x3bb1cde5	0.005426156
104	0xbcbf94e5	-0.023386428
105	0x3c37f6d3	0.011228281
106	0xbd93b5e0	-0.07212424
107	0xbc9ffaf1	-0.019528838
108	0x3d1e80ba	0.038696982
109	0xbd966e83	-0.07345297
110	0x3c05eb78	0.008173816
111	0xbd8ca9f4	-0.068683535
112	0x3d8c0c8f	0.06838333
113	0xbda66a93	-0.08125796
114	0xbd8da9e4	-0.0691717
115	0xbd2c8264	-0.042116538
116	0x3ceb23e9	0.028703647
117	0xbd54a161	-0.051911715
118	0x3cc17fac	0.023620449
119	0xbd163e18	-0.03668031
120	0x3d04ab9f	0.032390233
121	0x3d13bd38	0.036069125
122	0x3bb1c7f0	0.0054254457
123	0x3d6a6301	0.057223324
124	0x3c978080	0.01849389
125	0xbcecd40e	-0.02890971
126	0xbc01dc8d	-0.007926119
127	0xbb593081	-0.0033140483
128	0x3c5379eb	0.0129074855
129	0xbcc58cbc	-0.024114959
130	0x3d326699	0.043554876
131	0x3d23f403	0.04002763
132	0x3d7364f0	0.059422433
133	0xbc4b839f	-0.012421518
134	0x3c433d3a	0.011916453
135	0xbdc0ca0a	-0.09413536
136	0xbd95ad53	-0.073084496
137	0xbc97cef8	-0.018531308
138	0xbccad2e9	-0.024758773
139	0xbd05adb7	-0.03263637
140	0xbced8137	-0.028992279
141	0x3d26916c	0.04066603
142	0xbaf73cff	-0.0018862783
143	0xbcdff4e0	-0.027338445
144	0x3ccdcf85	0.025123367
145	0x3d4a7cd2	0.049435444
146	0x3b88f8cc	0.0041800495
147	0x3cb11393	0.021615779
148	0x3d200070	0.039062917
149	0x3bf8b742	0.0075902054
150	0x3bd40366	0.0064701317
151	0xbb0330b6	-0.0020018048
152	0xbc03766f	-0.008023842
153	0x3d2e9238	0.042619914
154	0x3d6fb02d	0.058517624
155	0xbd6f105c	-0.05836521
156	0x3c039c0f	0.008032813
157	0xbbddd0c2	-0.0067692706
158	0x3b0042c3	0.0019571043
159	0xbc45e1f6	-0.012077799
160	0x3ccb0c0e	0.024786022
161	0xbc9f7ee8	-0.019469693
162	0x3db5e349	0.08881242
163	0xbd899a7a	-0.06718917
164	0xbcb335b7	-0.0218762
165	0xbcbba06d	-0.022903645
166	0xbc97b46e	-0.018518653
167	0x3afadcb0	0.0019139256
168	0x3d2d9e71	0.04238743
169	0x3d0110dc	0.03151022
170	0xbd82f0f3	-0.06393614
171	0xbd337426	-0.04381194
172	0x3d9696d9	0.07352991
173	0xbbb34483	-0.0054708137
174	0x3c9862d0	0.018601805
175	0xbd256162	-0.040376075
176	0x3d51a502	0.051182754
177	0x3afba186	0.0019197918
178	0x3c81de60	0.015853107
179	0x3d337bd9	0.043819282
180	0xbd59e9e5	-0.053201575
181	0xbcecf737	-0.028926475
182	0x3c88d6fe	0.016704079
183	0x3d280a9f	0.041025754
184	0xbd8a6e43	-0.06759312
185	0x3c81a3eb	0.015825232
186	0x3d397867	0.04528084
187	0xbc189dad	-0.009314937
188	0xbba6c997	-0.0050899494
189	0x3d97564f	0.07389509
190	0x3c73f895	0.01489081
191	0x3d5886b9	0.052862857
192	0x3b1d313d	0.0023985647
193	0x3d835817	0.06413286
194	0xbc9cdd01	-0.019148352
195	0x3b9b2c9a	0.0047355415
196	0x3d1c629a	0.03817997
197	0x3ce19265	0.027535627
198	0xbd2d566d	-0.04231875
199	0x3d2597a1	0.040427808
200	0xbcf879ae	-0.030331459
201	0x3ca1aa68	0.019734576
202	0xbd78301c	-0.060592756
203	0x3cf96b5a	0.030446697
204	0xbcf9d666	-0.030497741
205	0xbcb1f481	-0.021723034
206	0x3d1d8125	0.03845324
207	0x3d438eb3	0.04774351
208	0x3dd21f74	0.102599055
209	0xbd22dab1	-0.03975934
210	0x3d4dcc71	0.0502438
211	0x3d01df0d	0.03170686
212	0x3daceadd	0.08443234
213	0x3cec5fbe	0.028854247
214	0x3c923fac	0.017852627
215	0xbd3336ec	-0.04375355
216	0xbc1d272c	-0.009591859
217	0x3cd3de2c	0.025862776
218	0xbd3fe5c2	-0.046849973
219	0x3c18970a	0.009313354
220	0x3cceb4fc	0.025232784
221	0xbd261f37	-0.040557113
222	0xbc4fef78	-0.012691371
223	0x3c8d4a8e	0.017247465
224	0x3c50c044	0.012741152
225	0x3c2d6ef4	0.010585535
226	0xbd701667	-0.058615115
227	0xbd72cfe8	-0.059280306
228	0xbded6053	-0.11590638
229	0xbcafcbc4	-0.021459468
230	0x3d3bac8e	0.045818858
231	0xba1ffa62	-0.00061026786
232	0x3d9690fc	0.07351872
233	0x3cf853c0	0.030313373
234	0x3cc4bbfa	0.024015415
235	0x3cb04454	0.021516956
236	0x3df49a14	0.119434506
237	0xbd260e28	-0.040540844
238	0x3da19613	0.078899525
239	0x3c7655ef	0.015035137
240	0xbd417530	-0.0472309
241	0x3d02709a	0.031845666
242	0x3cd3e108	0.02586414
243	0xbd29f0b8	-0.041489333
244	0xbd8d1882	-0.0688944
245	0x38dc5953	0.000105070554
246	0x3c990563	0.018679326
247	0xbcbd084f	-0.02307525
248	0x3b7e1db5	0.003877503
249	0x3da1b7e9	0.07896406
250	0xbd6f64e0	-0.05844581
251	0x3b960f28	0.0045794435
252	0x3c974a15	0.018467942
253	0x3d52400d	0.051330615
254	0x3d1c981c	0.038231
255	0x3d074493	0.03302438

bias f4 [50]
0	0xbc4e678c	-0.01259793
1	0xbd1ca1cc	-0.03824024
2	0x3cae9413	0.021310842
3	0x3cf332c9	0.029687302
4	0xbd33888a	-0.043831386
5	0x3d146ef8	0.03623864
6	0x3c4496c5	0.011998837
7	0x3ce4e089	0.027939098
8	0xbd339e32	-0.04385204
9	0x3d7fb146	0.06242492
10	0xbd4965d2	-0.04916937
11	0x3cd00db8	0.025397167
12	0x3d172853	0.03690369
13	0x3bab6b5a	0.005231303
14	0x3caffe2d	0.021483505
15	0x3d1ab08d	0.03776603
16	0xbc143bbc	-0.009047445
17	0x3b7578d7	0.003745606
18	0x3d5f3efd	0.05450343
19	0x3d28524c	0.04109411
20	0x3c1af869	0.00945864
21	0xbc12a8cb	-0.008951376
22	0x3cefb1cf	0.02925959
23	0x3c3380cb	0.010956
24	0x3c610f2b	0.0137365265
25	0xbd2c9b52	-0.042140312
26	0xbd270fe7	-0.04078665
27	0xbcf8dd2c	-0.0303789
28	0xbd162e26	-0.036665104
29	0x3cb9cc15	0.022680322
30	0xbbd981fe	-0.0066378107
31	0xbd86fe0e	-0.06591426
32	0xbd8adb75	-0.06780139
33	0xbd7d4fa2	-0.061843522
34	0xbcb934a8	-0.022608116
35	0xbd8a7f54	-0.06762567
36	0x3ccc8aab	0.024968466
37	0x3d549821	0.051902894
38	0x3d3e7222	0.046495564
39	0x3cf8b5ae	0.03036007
40	0x3d23246d	0.03982966
41	0xbd5c7753	-0.053824734
42	0xbd495417	-0.04915246
43	0x3d0b0525	0.033940453
44	0x3cc7c201	0.0243845
45	0xbd5d555f	-0.054036494
46	0xbd32299e	-0.04349672
47	0x3d520912	0.05127818
48	0x3d0a3857	0.033745136
49	0xbd3c4d63	-0.04597224

weight f4 [50]
0	0x3edef4dd	0.4354619
1	0x3f3c4ba8	0.7355294
2	0x3f7da3a3	0.99077815
3	0x3f6d238c	0.92632365
4	0x3ebbadb3	0.3665596
5	0x3f0235a1	0.5086308
6	0x3ea4574c	0.32097852
7	0x3f181315	0.59404117
8	0x3f282a45	0.656895
9	0x3f5e573f	0.86851877
10	0x3eea098e	0.45710415
11	0x3e9d5e3f	0.30735967
12	0x3eab69bc	0.33479106
13	0x3f1b36fb	0.6063077
14	0x3f036a58	0.5133414
15	0x3ec42ed2	0.3831697
16	0x3ebb61ef	0.36598155
17	0x3ec2b20b	0.3802646
18	0x3f803c4d	1.0018402
19	0x3edc3a93	0.4301344
20	0x3f1867ca	0.5953337
21	0x3f6fc932	0.93666375
22	0x3f00b40a	0.5027472
23	0x3f3e1f9d	0.7426699
24	0x3eeb871e	0.46001524
25	0x3e9182af	0.28420016
26	0x3ed66c8e	0.41879696
27	0x3f86af28	1.0522203
28	0x3e9c2f6b	0.30504927
29	0x3f8f3a37	1.1189641
30	0x3f17ffbf	0.5937461
31	0x3f5bfd3b	0.85933274
32	0x3f3c49e4	0.7355025
33	0x3f08c1d1	0.5342074
34	0x3f583798	0.8445983
35	0x3f77faa5	0.9686683
36	0x3efb33bb	0.49062905
37	0x3f85c876	1.0451801
38	0x3f25fd02	0.64839184
39	0x3ef925d8	0.48661685
40	0x3ea8014e	0.32813495
41	0x3f276e36	0.65402544
42	0x3f32458f	0.6963739
43	0x3f22fd26	0.63667524
44	0x3f76a154	0.9633992
45	0x3f602e7c	0.8757093
46	0x3f13ade2	0.576872
47	0x3ee7eba6	0.45296973
48	0x3f23c35d	0.63969976
49	0x3eaf7974	0.3427235

bias f4 [50]
0	0x3df67a9e	0.12035106
1	0x3dc7d4ff	0.09757423
2	0x3e0d26a7	0.13784276
3	0x3e47e19a	0.19519654
4	0x3dd03358	0.10166043
5	0x3dfe54cb	0.12418517
6	0x3e01384a	0.12619129
7	0x3e088cd0	0.13334966
8	0x3de7c604	0.11317065
9	0x3e35f482	0.17769054
10	0x3dce06d5	0.10059897
11	0x3e0114a1	0.12605526
12	0x3df74980	0.12074566
13	0x3dbd1e4d	0.09234295
14	0x3da2f365	0.0795658
15	0x3df27d7c	0.118403405
16	0x3d92d6d3	0.07169881
17	0x3e0bc723	0.13650183
18	0x3df5258b	0.119700514
19	0x3e1962c2	0.1497908
20	0x3e2e0441	0.1699381
21	0x3db0023d	0.08594177
22	0x3df199f8	0.11796945
23	0x3e057ff3	0.1303709
24	0x3e08bd6e	0.13353512
25	0x3dfc3c26	0.1231616
26	0x3e1ff6ad	0.15621443
27	0x3dda6fe2	0.10665871
28	0x3db2acb2	0.08724345
29	0x3e1466c1	0.14492323
30	0x3dccf0fa	0.100069
31	0x3e02f019	0.12786902
32	0x3e17b830	0.14816356
33	0x3e21e697	0.1581062
34	0x3e27a56b	0.16371696
35	0x3dfaebec	0.1225203
36	0x3dfc8bbc	0.1233134
37	0x3d8d61f1	0.069034465
38	0x3dd0d318	0.10196513
39	0x3e27abd5	0.16374142
40	0x3da88ab0	0.082295775
41	0x3dd49410	0.10379803
42	0x3dc1ec5f	0.09468912
43	0x3e151afa	0.14561072
44	0x3dc8fa6c	0.09813389
45	0x3e0215ed	0.12703677
46	0x3e3dfd6e	0.18553707
47	0x3df1f9b5	0.11815206
48	0x3e04a10a	0.12952057
49	0x3e11a164	0.14221722

running_mean f4 [50]
0	0x3da89867	0.082321934
1	0x3c17ef05	0.009273295
2	0xbc16f373	-0.009213316
3	0x3d609632	0.054830737
4	0x3de6e942	0.11274959
5	0x3e5c47c4	0.21511751
6	0x3c21fc08	0.009886749
7	0x3d3116ce	0.04323464
8	0x3cb51156	0.022102993
9	0x3e287bc4	0.16453463
10	0xbc0e9489	-0.008702406
11	0x3d128d3a	0.035779215
12	0x3e3a14cf	0.18172
13	0x3dad05b5	0.08448354
14	0x3de25e45	0.11053137
15	0x3cd9f246	0.026604783
16	0xbd997bc8	-0.074943125
17	0x3e2494de	0.16072413
18	0xbc886a22	-0.01665217
19	0x3bbec1d8	0.005821448
20	0x3d28b88d	0.041191626
21	0x3dafe46e	0.085884914
22	0x3dba4ae5	0.09096316
23	0x3e282841	0.16421606
24	0xbca7d103	-0.020485407
25	0xbcb6817a	-0.022278536
26	0x3dfd9456	0.123818085
27	0xbd2b1018	-0.041763395
28	0x3e07a35a	0.13245907
29	0x3c23dd72	0.010001527
30	0xbcc48e6f	-0.023993699
31	0x3c60f4a1	0.013730199
32	0xbd08cac8	-0.033396512
33	0x3d436b93	0.047710013
34	0xbd3c5e7c	-0.045988545
35	0x3d4f37b0	0.050590217
36	0x3d7757bb	0.0603864
37	0x3d93da61	0.07219387
38	0x3d24a291	0.040194098
39	0x3cc94a76	0.024571639
40	0x3e5c30be	0.21502969
41	0xbdeb0c71	-0.114769824
42	0x3d0ed619	0.03487215
43	0x3dfe9202	0.124301925
44	0xbca43ed7	-0.020049496
45	0xbd1d3eab	-0.038389843
46	0xbd06a618	-0.032873243
47	0x3e08a8ca	0.13345638
48	0xbc5a57c5	-0.01332659
49	0xbe20232b	-0.15638416

running_var f4 [50]
0	0x3a734760	0.000928035
1	0x3a867a35	0.0010259809
2	0x3a70513f	0.000916738
3	0x3ac78712	0.0015222749
4	0x3a8d5eaa	0.0010785658
5	0x3a940e3b	0.0011295745
6	0x3a89a016	0.001049998
7	0x3aaac07d	0.0013027337
8	0x3ab5fb4e	0.0013884099
9	0x3ad28907	0.0016062566
10	0x3a9a9c4d	0.0011795849
11	0x3a9ddd1d	0.0012044046
12	0x3adcafe1	0.0016837084
13	0x3a8226c1	0.0009929762
14	0x3ab8e98d	0.001410769
15	0x3a75bbe5	0.0009374007
16	0x3abb3daa	0.0014285345
17	0x3a8f80a2	0.001094837
18	0x3a86e45e	0.0010291447
19	0x3a8c16dd	0.0010687966
20	0x3a9a62e1	0.0011778736
21	0x3a62a2ac	0.0008645456
22	0x3a4d5d35	0.00078340183
23	0x3ab57f66	0.0013847172
24	0x3a962be4	0.0011457172
25	0x3a90d000	0.0011048317
26	0x3a9236ef	0.0011155288
27	0x3aa6d421	0.0012728014
28	0x3a94d51c	0.0011355015
29	0x3a840f75	0.0010075407
30	0x3a9c5038	0.0011925763
31	0x3a9ce8c4	0.0011971225
32	0x3a562b83	0.0008169936
33	0x3ab2f9bf	0.0013654752
34	0x3aa01aea	0.0012215052
35	0x3a92b7cb	0.0011193691
36	0x3a8901fa	0.001045286
37	0x3ab85e53	0.0014066197
38	0x3a725331	0.0009243964
39	0x3ab1e2ad	0.0013571583
40	0x3a86c42c	0.0010281852
41	0x3a8bc430	0.0010663327
42	0x3a65d059	0.0008766703
43	0x3a7d245e	0.0009656603
44	0x3a87c28c	0.0010357662
45	0x3aa36762	0.0012466724
46	0x3a9fb026	0.0012183234
47	0x3a6f91d5	0.0009138857
48	0x3aad0f65	0.001320344
49	0x3a86fa62	0.0010298009

weight f4 [1, 50]
0	0xbe81a0a0	-0.2531786
1	0x3e872798	0.26397395
2	0xbe30280b	-0.17202775
3	0x3e448ca0	0.19194269
4	0xbe3c36eb	-0.18380325
5	0x3e8b75c7	0.27238294
6	0xbe8af821	-0.27142432
7	0x3e6cf562	0.23140481
8	0x3e82d77c	0.25555027
9	0x3e4acf4c	0.1980564
10	0x3e88af45	0.2669622
11	0xbe598731	-0.21242978
12	0x3eb54f7c	0.35412204
13	0xbe521f51	-0.20519759
14	0xbe35fd39	-0.17772378
15	0xbe622a83	-0.2208653
16	0xbe214c50	-0.15751767
17	0xbe82e817	-0.25567695
18	0xbe3864ae	-0.18007156
19	0xbe598a13	-0.21244077
20	0x3e5dc6ef	0.21657918
21	0xbe29b986	-0.16574678
22	0xbe611110	-0.21979165
23	0x3e38e130	0.18054652
24	0xbe83cdef	-0.25743052
25	0xbe9d2d1a	-0.30698472
26	0xbe5c9ab2	-0.21543387
27	0x3e58cc50	0.21171689
28	0x3eb048fb	0.3443068
29	0xbe0e079a	-0.13870087
30	0xbe2f38ce	-0.17111513
31	0x3e735e19	0.23766364
32	0xbe34688e	-0.1761801
33	0x3e557c4b	0.20848195
34	0x3e3d3d22	0.18480352
35	0xbe174caf	-0.14775346
36	0x3e90c56c	0.2827562
37	0xbdd59790	-0.10429299
38	0xbe64bb9d	-0.22337194
39	0x3e7b10b2	0.24518088
40	0xbe8446f9	-0.25835398
41	0xbe4ad224	-0.19806725
42	0xbe553311	-0.20820262
43	0xbe289bf9	-0.16465749
44	0xbe1b5a93	-0.1517127
45	0x3e537df3	0.20653515
46	0x3e63196d	0.22177668
47	0x3e8377cf	0.25677344
48	0x3e6c2e42	0.23064521
49	0xbe8f8c61	-0.28036788
